2024-11-03,17:32:25 | INFO | No latest resume checkpoint found in ./logs/2024_11_03-17_32_25-model_ViT-L-14-lr_0.002-b_256-j_8-p_pure_bf16/checkpoints.
2024-11-03,17:32:25 | INFO | Running with a single process. Device cuda.
2024-11-03,17:32:25 | INFO | Loaded ViT-L-14 model config.
2024-11-03,17:32:31 | INFO | Model:
2024-11-03,17:32:31 | INFO | CLIP(
  (visual): VisionTransformer(
    (conv1): Conv2d(3, 1024, kernel_size=(14, 14), stride=(14, 14), bias=False)
    (patch_dropout): Identity()
    (ln_pre): LayerNorm((1024,), eps=1e-05, elementwise_affine=True)
    (transformer): Transformer(
      (resblocks): ModuleList(
        (0-23): 24 x ResidualAttentionBlock(
          (ln_1): LayerNorm((1024,), eps=1e-05, elementwise_affine=True)
          (attn): MultiheadAttention(
            (out_proj): NonDynamicallyQuantizableLinear(in_features=1024, out_features=1024, bias=True)
          )
          (ls_1): Identity()
          (ln_2): LayerNorm((1024,), eps=1e-05, elementwise_affine=True)
          (mlp): Sequential(
            (c_fc): Linear(in_features=1024, out_features=4096, bias=True)
            (gelu): GELU(approximate='none')
            (c_proj): Linear(in_features=4096, out_features=1024, bias=True)
          )
          (ls_2): Identity()
        )
      )
    )
    (ln_post): LayerNorm((1024,), eps=1e-05, elementwise_affine=True)
  )
  (transformer): Transformer(
    (resblocks): ModuleList(
      (0-11): 12 x ResidualAttentionBlock(
        (ln_1): LayerNorm((768,), eps=1e-05, elementwise_affine=True)
        (attn): MultiheadAttention(
          (out_proj): NonDynamicallyQuantizableLinear(in_features=768, out_features=768, bias=True)
        )
        (ls_1): Identity()
        (ln_2): LayerNorm((768,), eps=1e-05, elementwise_affine=True)
        (mlp): Sequential(
          (c_fc): Linear(in_features=768, out_features=3072, bias=True)
          (gelu): GELU(approximate='none')
          (c_proj): Linear(in_features=3072, out_features=768, bias=True)
        )
        (ls_2): Identity()
      )
    )
  )
  (token_embedding): Embedding(49408, 768)
  (ln_final): LayerNorm((768,), eps=1e-05, elementwise_affine=True)
)
2024-11-03,17:32:31 | INFO | Params:
2024-11-03,17:32:31 | INFO |   accum_freq: 1
2024-11-03,17:32:31 | INFO |   aug_cfg: {}
2024-11-03,17:32:31 | INFO |   batch_size: 256
2024-11-03,17:32:31 | INFO |   beta1: 0.9
2024-11-03,17:32:31 | INFO |   beta2: 0.95
2024-11-03,17:32:31 | INFO |   cache_dir: None
2024-11-03,17:32:31 | INFO |   checkpoint_path: ./logs/2024_11_03-17_32_25-model_ViT-L-14-lr_0.002-b_256-j_8-p_pure_bf16/checkpoints
…
