2024-11-03,21:19:16 | INFO | No latest resume checkpoint found in ./logs/2024_11_03-21_19_16-model_ViT-B-16-lr_0.002-b_512-j_8-p_pure_bf16/checkpoints.
2024-11-03,21:19:16 | INFO | Running with a single process. Device cuda.
2024-11-03,21:19:16 | INFO | Loaded ViT-B-16 model config.
2024-11-03,21:19:17 | INFO | Model:
2024-11-03,21:19:17 | INFO | CLIP(
  (visual): VisionTransformer(
    (conv1): Conv2d(3, 768, kernel_size=(16, 16), stride=(16, 16), bias=False)
    (patch_dropout): Identity()
    (ln_pre): LayerNorm((768,), eps=1e-05, elementwise_affine=True)
    (transformer): Transformer(
      (resblocks): ModuleList(
        (0-11): 12 x ResidualAttentionBlock(
          (ln_1): LayerNorm((768,), eps=1e-05, elementwise_affine=True)
          (attn): MultiheadAttention(
            (out_proj): NonDynamicallyQuantizableLinear(in_features=768, out_features=768, bias=True)
          )
          (ls_1): Identity()
          (ln_2): LayerNorm((768,), eps=1e-05, elementwise_affine=True)
          (mlp): Sequential(
            (c_fc): Linear(in_features=768, out_features=3072, bias=True)
            (gelu): GELU(approximate='none')
            (c_proj): Linear(in_features=3072, out_features=768, bias=True)
          )
          (ls_2): Identity()
        )
      )
    )
    (ln_post): LayerNorm((768,), eps=1e-05, elementwise_affine=True)
  )
  (transformer): Transformer(
    (resblocks): ModuleList(
      (0-11): 12 x ResidualAttentionBlock(
        (ln_1): LayerNorm((512,), eps=1e-05, elementwise_affine=True)
        (attn): MultiheadAttention(
          (out_proj): NonDynamicallyQuantizableLinear(in_features=512, out_features=512, bias=True)
        )
        (ls_1): Identity()
        (ln_2): LayerNorm((512,), eps=1e-05, elementwise_affine=True)
        (mlp): Sequential(
          (c_fc): Linear(in_features=512, out_features=2048, bias=True)
          (gelu): GELU(approximate='none')
          (c_proj): Linear(in_features=2048, out_features=512, bias=True)
        )
        (ls_2): Identity()
      )
    )
  )
  (token_embedding): Embedding(49408, 512)
  (ln_final): LayerNorm((512,), eps=1e-05, elementwise_affine=True)
)
2024-11-03,21:19:17 | INFO | Params:
2024-11-03,21:19:17 | INFO |   accum_freq: 1
2024-11-03,21:19:17 | INFO |   aug_cfg: {}
2024-11-03,21:19:17 | INFO |   batch_size: 512
2024-11-03,21:19:17 | INFO |   beta1: 0.9
2024-11-03,21:19:17 | INFO |   beta2: 0.95
2024-11-03,21:19:17 | INFO |   cache_dir: None
2024-11-03,21:19:17 | INFO |   checkpoint_path: ./logs/2024_11_03-21_19_16-model_ViT-B-16-lr_0.002-b_512-j_8-p_pure_bf16/checkpoints
…
