2024-11-04,11:06:59 | INFO | No latest resume checkpoint found in ./logs/2024_11_04-11_06_59-model_ViT-S-16-lr_0.002-b_1024-j_8-p_pure_bf16/checkpoints.
2024-11-04,11:06:59 | INFO | Running with a single process. Device cuda.
2024-11-04,11:06:59 | INFO | Loaded ViT-S-16 model config.
2024-11-04,11:07:00 | INFO | Model:
2024-11-04,11:07:00 | INFO | CLIP(
  (visual): VisionTransformer(
    (conv1): Conv2d(3, 384, kernel_size=(16, 16), stride=(16, 16), bias=False)
    (patch_dropout): Identity()
    (ln_pre): LayerNorm((384,), eps=1e-05, elementwise_affine=True)
    (transformer): Transformer(
      (resblocks): ModuleList(
        (0-11): 12 x ResidualAttentionBlock(
          (ln_1): LayerNorm((384,), eps=1e-05, elementwise_affine=True)
          (attn): MultiheadAttention(
            (out_proj): NonDynamicallyQuantizableLinear(in_features=384, out_features=384, bias=True)
          )
          (ls_1): Identity()
          (ln_2): LayerNorm((384,), eps=1e-05, elementwise_affine=True)
          (mlp): Sequential(
            (c_fc): Linear(in_features=384, out_features=1536, bias=True)
            (gelu): GELU(approximate='none')
            (c_proj): Linear(in_features=1536, out_features=384, bias=True)
          )
          (ls_2): Identity()
        )
      )
    )
    (ln_post): LayerNorm((384,), eps=1e-05, elementwise_affine=True)
  )
  (transformer): Transformer(
    (resblocks): ModuleList(
      (0-11): 12 x ResidualAttentionBlock(
        (ln_1): LayerNorm((384,), eps=1e-05, elementwise_affine=True)
        (attn): MultiheadAttention(
          (out_proj): NonDynamicallyQuantizableLinear(in_features=384, out_features=384, bias=True)
        )
        (ls_1): Identity()
        (ln_2): LayerNorm((384,), eps=1e-05, elementwise_affine=True)
        (mlp): Sequential(
          (c_fc): Linear(in_features=384, out_features=1536, bias=True)
          (gelu): GELU(approximate='none')
          (c_proj): Linear(in_features=1536, out_features=384, bias=True)
        )
        (ls_2): Identity()
      )
    )
  )
  (token_embedding): Embedding(49408, 384)
  (ln_final): LayerNorm((384,), eps=1e-05, elementwise_affine=True)
)
2024-11-04,11:07:00 | INFO | Params:
2024-11-04,11:07:00 | INFO |   accum_freq: 1
2024-11-04,11:07:00 | INFO |   aug_cfg: {}
2024-11-04,11:07:00 | INFO |   batch_size: 1024
2024-11-04,11:07:00 | INFO |   beta1: 0.9
2024-11-04,11:07:00 | INFO |   beta2: 0.95
2024-11-04,11:07:00 | INFO |   cache_dir: None
2024-11-04,11:07:00 | INFO |   checkpoint_path: ./logs/2024_11_04-11_06_59-model_ViT-S-16-lr_0.002-b_1024-j_8-p_pure_bf16/checkpoints
…
